model.tflite (tflite, 17324 bytes, 4 tensors)

sequential/dense/BiasAdd/ReadVariableOp/resource f4 [5]
0	0x3ee7c407	0.45266744
1	0x3e0f4548	0.13991272
2	0xbd8c1f16	-0.06841867
3	0x3e0192f3	0.12653713
4	0xbe9cf8ea	-0.30658656

sequential/dense_1/BiasAdd/ReadVariableOp/resource f4 [10]
0	0xbf9ffe78	-1.2499533
1	0x40077a7d	2.116851
2	0xbf796737	-0.9742312
3	0xbf7f4ecb	-0.99729604
4	0x3fa3e80d	1.2805191
5	0x3f39610b	0.724137
6	0xbe821e29	-0.25413635
7	0xbbaf9468	-0.0053582676
8	0xbe92d95c	-0.28681457
9	0xbc8087ea	-0.015689809

sequential/dense/MatMul f4 [5, 784]
0	0x3d1ff978	0.03905627
1	0x3ca0a9d4	0.01961223
2	0xbcb3845c	-0.0219137
3	0xbd8c9d16	-0.06865899
4	0x3d8eabd0	0.069663644
5	0xbd9fc0a6	-0.07800417
6	0x3d09e97e	0.03366994
7	0xbae288c0	-0.0017283186
8	0xbda88a3f	-0.08229493
9	0xbc826c54	-0.015920796
10	0x3db14d4a	0.0865732
11	0x3cd761ec	0.02629181
12	0x3da41171	0.08011139
13	0xb9392c90	-0.00017659576
14	0x3d21026e	0.039308958
15	0x3af25b5c	0.0018490362
16	0x3daeb10a	0.08529861
17	0xbc312b20	-0.010813504
18	0x3d0323f6	0.032016717
19	0xbd2709c0	-0.040780783
20	0xbc8f5a60	-0.017499149
21	0xbd669e68	-0.05630341
22	0x3daf471c	0.08558485
23	0xbc22bdb0	-0.00993292
24	0xbaa69d40	-0.0012711659
25	0x3c8f571c	0.017497592
26	0xbd5e3d3f	-0.054257628
27	0xbda1e8d6	-0.07905738
28	0x3d1edde0	0.038785815
29	0x3d8e5a5c	0.069508284
30	0xbd57eace	-0.05271416
31	0xbd6ab858	-0.05730471
32	0x3d190695	0.037359793
33	0x3e0f012d	0.13965292
34	0x3e30097c	0.17191118
35	0x3e4c9bc9	0.19981302
36	0x3ea6b4b4	0.3255974
37	0x3ecc4f86	0.39904422
38	0x3eef24cf	0.4670777
39	0x3f11f704	0.5701754
40	0x3f08950d	0.53352433
41	0x3f0fb19b	0.5613038
42	0x3ec8b83c	0.3920306
43	0x3e435f9c	0.19079441
44	0x3df0ad94	0.117518574
45	0x3ea17dbb	0.31541237
46	0x3f074260	0.52835655
47	0x3f00ace0	0.50263786
48	0x3ebe924c	0.3722099
49	0x3e3f6c9e	0.18693778
50	0x3e378fb5	0.17925914
51	0xbca54ac6	-0.020177256
52	0xbc45fba8	-0.012083925
53	0xbca94cd0	-0.02066651
54	0x3d021b8e	0.03176456
55	0x3d95f2ce	0.07321702
56	0x3d8aed92	0.06783594
57	0xbc2dcd08	-0.010607965
58	0x3cba2282	0.022721533
59	0x3d9b999f	0.0759766
60	0x3df43965	0.1192501
61	0x3e7f4928	0.2493025
62	0x3e72fd81	0.23729517
63	0x3eca6248	0.39528108
64	0x3ebd4a9c	0.36970985
65	0x3ed30560	0.41215038
66	0x3edfd887	0.43719885
67	0x3ee32a55	0.44368234
68	0x3e9d25f8	0.3069303
69	0x3ea57d1f	0.32322022
70	0x3e8fbad5	0.2807223
71	0x3e73dae4	0.23813969
72	0x3e20af7f	0.15691946
73	0x3e4960d5	0.19665845
74	0x3eda2bde	0.42611593
75	0x3f0ca605	0.54940826
76	0x3f3c2960	0.73500633
77	0x3f464f0c	0.77464366
78	0x3f2bca12	0.6710521
79	0x3edbd4ce	0.42935795
80	0x3e21b564	0.15791851
81	0x3bf641a3	0.0075151487
82	0xbc8b48b0	-0.017002434
83	0x3d8fc066	0.07019119
84	0x3d195be0	0.037441134
85	0xbc942638	-0.01808463
86	0xbd3c2d98	-0.04594192
87	0xbcf3d146	-0.029762875
88	0x3de636f2	0.11240949
89	0x3e34cbb7	0.17655836
90	0x3e2f7efc	0.17138284
91	0x3deeac96	0.11654012
92	0x3e4b637a	0.19862166
93	0x3e1c3721	0.15255405
94	0x3ea973ae	0.3309607
95	0x3eb4d938	0.35321975
96	0x3e9655ec	0.29362428
97	0x3e9a131a	0.30092698
98	0x3ec2de4e	0.3806023
99	0x3e8cdc03	0.27511606
100	0x3ec98717	0.39360878
101	0x3eabcd21	0.33554938
102	0x3ebf666f	0.37382838
103	0x3ecce717	0.40020058
104	0x3e9cf571	0.30656007
105	0x3ecd5555	0.40104166
106	0x3e85a2cc	0.26100767
107	0x3eef648f	0.46756408
108	0x3ea6d093	0.32581005
109	0x3e685a9b	0.22690813
110	0x3d86e4c6	0.06586604
111	0x3b716180	0.0036831796
112	0x3d0fa598	0.035070032
113	0x3cb31c48	0.021864071
114	0xbe0250d7	-0.1272615
115	0xbd461b5c	-0.048365936
116	0x3c2ec27d	0.010666487
117	0x3d3f3f99	0.04669151
118	0x3b8b32ce	0.0042479998
119	0x3da3a255	0.07989947
120	0x3de2bbf4	0.110710055
121	0x3e09efe5	0.13470419
122	0x3c133edb	0.008987154
123	0x3def00ee	0.11670099
124	0x3dadb02e	0.08480869
125	0x3de0a201	0.109684
126	0xbd2ea1ba	-0.042634703
127	0x3d710694	0.058844164
128	0x3c066d62	0.00820479
129	0x3ac92786	0.0015346862
130	0xbca09a43	-0.019604808
131	0x3b75ed4c	0.0037525473
132	0xbe00bec4	-0.12572771
133	0xbe09a2d6	-0.13441023
134	0x3d1644da	0.036686756
135	0x3daf2e20	0.085537195
136	0x3d5ed62e	0.054403476
137	0xbcc8f3ce	-0.024530318
138	0xbe47e16f	-0.1951959
139	0x3cd4880c	0.025943778
140	0x3d5deef4	0.05418296
141	0xbd5e1aef	-0.054224905
142	0x3de986c1	0.114026554
143	0xbd260710	-0.04053408
144	0xbbebf2c1	-0.0072005694
145	0xbdfcfc54	-0.12352815
146	0x3d08ee8e	0.03343063
147	0x3e463194	0.1935485
148	0x3e907fe4	0.28222573
149	0x3e3e08f4	0.18558103
150	0x3ea8d9b9	0.3297861
151	0x3dbeda97	0.093190365
152	0x3e7d6534	0.24745637
153	0x3e215e87	0.15758716
154	0x3d42ebb4	0.047588065
155	0x3b921d4a	0.004459058
156	0x3d2308bd	0.039803255
157	0xbc0f2d86	-0.008738881
158	0xbd6239f1	-0.05523104
159	0xbd74ecd2	-0.059796162
160	0xbe7a9938	-0.24472511
161	0xbeaeb598	-0.3412292
162	0xbed66c45	-0.41879478
163	0xbe2565fa	-0.16152182
164	0xbe5ad50c	-0.21370333
165	0xbe15415e	-0.14575717
166	0xbe80d693	-0.25163707
167	0x3c24b2ac	0.010052364
168	0x3d49ff34	0.049315646
169	0x3c10ab11	0.008829848
170	0xbd8b7751	-0.06809867
171	0x3c516f34	0.012782861
172	0x3d2411c4	0.040056005
173	0xbc0f8252	-0.008759098
174	0xbd650b1b	-0.055918794
175	0x3e142044	0.14465433
176	0x3da414be	0.08011769
177	0x3df98f21	0.12185503
178	0x3deb0f95	0.114775814
179	0x3daf86d3	0.085706376
180	0x3dacc83f	0.084366314
181	0x3e52d206	0.2058793
182	0x3e2b2f24	0.16717201
183	0x3e47c009	0.1950685
184	0x3e54aa48	0.20768082
185	0x3e681d07	0.22667323
186	0x3dce9ee0	0.10088897
187	0xbcc2f6da	-0.023799349
188	0xbdca7043	-0.098846935
189	0xbe5a8cfb	-0.21342842
190	0xbd2dea72	-0.042459913
191	0xbe1ced98	-0.1532501
192	0xbe886e87	-0.26646826
193	0xbe5dcd6b	-0.21660392
194	0xbe1210ff	-0.14264296
195	0x3cff6d84	0.03118015
196	0xbdaa48a5	-0.08314637
197	0xbd1d5e86	-0.038420223
198	0xbe614958	-0.22000635
199	0xbc37add3	-0.0112108765
200	0x3d200278	0.039064854
201	0x3c8a910f	0.016914872
202	0xbdd7fb5b	-0.10545989
203	0xbd255931	-0.040368263
204	0xbd28fac7	-0.041254785
205	0x3d25b5cc	0.040456578
206	0xbdbd4728	-0.092420876
207	0x3dc7152f	0.09720837
208	0x3e069baf	0.13145326
209	0x3e8f9758	0.28045154
210	0x3ed38239	0.4131029
211	0x3ee4e551	0.44706205
212	0x3ea208cb	0.31647334
213	0x3e916c01	0.28402713
214	0x3ddf6de8	0.10909635
215	0x3ba79a85	0.0051148557
216	0xbe1f0a63	-0.15531306
217	0xbd90fd6d	-0.07079587
218	0xbdc90054	-0.09814516
219	0x3d113701	0.035452846
220	0xbe479852	-0.194917
221	0xbdf89b85	-0.12139038
222	0xbe0f6402	-0.14002994
223	0xbddb3638	-0.10703701
224	0x3c35c28a	0.011093745
225	0xbe2dc2fa	-0.16968909
226	0xbec43578	-0.38322043
227	0xbe389084	-0.18023878
228	0xbddac3ab	-0.10681852
229	0xbe185a32	-0.14878157
230	0xbd1f976c	-0.038962767
231	0xbe564450	-0.20924497
232	0xbe0626b5	-0.13100703
233	0xbd0c4c8e	-0.034252696
234	0x3d4f98a0	0.050682664
235	0xbd01ec08	-0.031719238
236	0xbceacd20	-0.028662264
237	0x3dce48bd	0.100724675
238	0x3e04782c	0.12936467
239	0x3dc727d4	0.097243935
240	0x3db01cf2	0.08599271
241	0x3dae3035	0.085052885
242	0xbba9185b	-0.005160374
243	0xbdd8f503	-0.10593607
244	0x3cff570a	0.031169433
245	0x3dabb4d8	0.083841026
246	0xbd99e6d1	-0.07514728
247	0x3d67b500	0.0565691
248	0xbdbcd1ea	-0.092197254
249	0xbebabde9	-0.36473015
250	0xbe0e6296	-0.13904795
251	0xbc6f556c	-0.0146077685
252	0x3c5f02e2	0.013611527
253	0xbe04066e	-0.12893078
254	0xbee28c2a	-0.44247562
255	0xbe94933a	-0.29018575

sequential/dense_1/MatMul f4 [10, 5]
0	0x3eb89943	0.3605443
1	0xbf19371c	-0.59849715
2	0xbecc4bb9	-0.39901522
3	0x3d317889	0.043327842
4	0x3e1e2a46	0.15445814
5	0xbfc91581	-1.5709687
6	0xbf50f915	-0.8163007
7	0x3f30b67d	0.69028455
8	0x3ed6c43f	0.419466
9	0xbec20e04	-0.37901318
10	0xbec9e13c	-0.39429653
11	0xbf6a8222	-0.91604817
12	0x3f53557f	0.8255233
13	0xbe0413ea	-0.12898222
14	0x3ee91eb4	0.45531237
15	0xbeadaa00	-0.33918762
16	0x3e2f88e5	0.17142065
17	0x3eb9eaa3	0.36311826
18	0x3e2bae54	0.1676572
19	0xbf5f8932	-0.8731872
20	0x3e897063	0.26843557
21	0x3e0791f3	0.13239269
22	0xbf22ced3	-0.6359684
23	0xbfca1b63	-1.5789608
24	0x3ee2ea4d	0.44319382
25	0xbda5791a	-0.08079739
26	0x3e46d18f	0.19415878
27	0xbf2d9348	-0.6780286
28	0x3dc1a1e2	0.09454705
29	0xbed1806a	-0.40918285
30	0x3f34b431	0.7058745
31	0xbec00b7d	-0.37508765
32	0x3f00a47a	0.5025097
33	0xbf6c2fa2	-0.9226018
34	0xbf0ca3ae	-0.54937255
35	0xbf60daa0	-0.87833595
36	0x3f255d11	0.64595133
37	0x3f1bc764	0.6085112
38	0xbf4bdba5	-0.79632026
39	0xbeac322f	-0.33632037
40	0xbf41404e	-0.75488746
41	0x3bfb5394	0.0076698754
42	0xbd993cba	-0.07482286
43	0xbccaf548	-0.024775162
44	0x3f362bf9	0.71160847
45	0x3dc4fcdc	0.096185416
46	0x3f0b603f	0.54443735
47	0x3eab8517	0.33499977
48	0xbf976691	-1.1828176
49	0xbee99aee	-0.45626014
