Android/tutorial_mobile_example_offline/app/src/main/ml/model.tflite (tflite, 17324 bytes, 4 tensors)

sequential/dense/BiasAdd/ReadVariableOp/resource f4 [5]
000000 25 42 bb be 94 4a c4 3e c5 98 d0 3e 84 e8 fb 3e
       -0.36573902 0.3833815 0.40741554 0.49200833
000010 96 71 17 3e
       0.14789423

sequential/dense_1/BiasAdd/ReadVariableOp/resource f4 [10]
000000 de 1a b3 be 34 16 b5 bd c6 d9 6c 3f bd cc 61 be
       -0.34981436 -0.088421255 0.92519796 -0.22050758
000010 ab 1d a6 3e d2 65 d4 3e c8 49 d7 3e 81 0b b6 3e
       0.3244451 0.41483933 0.42048478 0.35555652
000020 8b f4 e7 bf fb 44 ad 3c
       -1.8121504 0.021151057

sequential/dense/MatMul f4 [5, 784]
000000 7d e0 89 bd 70 21 5d 3d 70 39 63 bd c8 1a 38 3d
       -0.06732271 0.053986967 -0.0554747 0.044947416
000010 c0 09 a0 bd 18 d3 d1 bc 00 df 51 3c 88 77 f4 3c
       -0.0781436 -0.025613353 0.012809515 0.029842153
000020 f0 cb 23 3d f0 0c 39 3d 06 74 89 3d 5a 3b 8a 3d
       0.03998941 0.045178354 0.06711583 0.06749602
000030 ec 3c 63 bc 90 15 8e bc ae a4 3f bd d0 31 82 b9
       -0.013869505 -0.017344266 -0.04678791 -0.00024832645
000040 94 b2 1e 3d 74 f7 37 3d 00 66 e6 3a f2 93 72 bd
       0.038744524 0.044913724 0.0017578006 -0.059223123
000050 12 33 88 bd f8 44 47 3d da 28 8f bd 8c 20 4d bd
       -0.06650366 0.048649758 -0.06990214 -0.050079867
000060 64 02 ba bc 40 21 ef 3a da b9 9c bd 5c c4 d4 bc
       -0.022706218 0.0018244162 -0.07652636 -0.025972538
000070 f0 f3 be bc 18 75 f1 3c 20 53 a0 bb 94 cb a3 bd
       -0.023309678 0.02947478 -0.004892722 -0.07997814
000080 00 17 56 3d 60 a1 c9 3b 85 1f 8f 3c 39 df 88 bd
       0.05226803 0.0061532706 0.017471084 -0.06683201
000090 e4 d2 f5 bd 1e 8b cf bd 27 e6 ad bd 5e 2e e4 3b
       -0.12003115 -0.101339564 -0.08491164 0.006963535
0000a0 41 c8 f5 bd e0 4c cf ba e4 84 15 3d 39 e5 42 3e
       -0.12001086 -0.0015815757 0.036503688 0.19032754
0000b0 5c 69 4c 3e 6e 8b 03 3e f3 00 1d bd aa a1 51 3c
       0.19962066 0.12846157 -0.038330983 0.012794891
0000c0 6c c1 90 bc 60 29 ee 39 38 09 a4 bd b8 37 ae bd
       -0.017670356 0.00045425724 -0.08009571 -0.08506721
0000d0 80 e7 c5 3a 20 23 8d 3c f7 c6 84 bd b8 06 b9 bc
       0.00150989 0.017228663 -0.06483262 -0.022586212
0000e0 3c 84 90 bc 68 5c 07 3c c8 b6 aa bc 41 31 74 3d
       -0.01764118 0.008261777 -0.02083911 0.059617285
0000f0 db 73 6c 3c ae 4f 6a bd 8b 88 90 3d 9d cb be bc
       0.014431919 -0.057204895 0.070572935 -0.02329045
000100 54 d5 d8 bd 3e db ff bd f3 02 1c 3e c8 f8 12 3e
       -0.10587564 -0.12492989 0.152355 0.14352715
000110 ce 4e 1d 3e af 76 dd 3d 4b d9 4c 3e 39 fe 13 3e
       0.15362093 0.10813653 0.20004766 0.14452447
000120 f9 e9 38 3e d8 38 e0 3d 2b 15 ea bd 56 00 8d be
       0.18058003 0.10948342 -0.11429819 -0.2753932
000130 5b 7d d7 be 8c a9 ab be 1e cf a0 be a9 ee 11 be
       -0.42087826 -0.33527792 -0.31408018 -0.14251198
000140 6a 96 c7 bb 48 af cc 3d 62 76 f9 bc 1c 1f ff bc
       -0.006090929 0.0999437 -0.030451957 -0.031142764
000150 b9 5b 05 bd fc ab 68 3d b8 ca 47 bd 6a bc b7 bc
       -0.032558177 0.056804642 -0.048777312 -0.02242871
000160 f0 97 70 bd 8f de c6 3c 6e 68 89 3d 30 0d 6d 3e
       -0.05873865 0.024276046 0.067093715 0.23149562
000170 0d f5 8b 3e 3c f9 12 3e 57 e2 8a 3e 25 83 00 3f
       0.27335396 0.14352888 0.2712581 0.5020011
000180 c7 c2 13 3f ac a7 d3 3e 0e 01 6b 3e 05 9f 68 3e
       0.5771908 0.4133886 0.22949621 0.22716911
000190 dc cb 90 3e bf 8b 9e 3d 1b d3 93 3d 59 bd 8c bd
       0.28280532 0.07741498 0.072179995 -0.06872053
0001a0 ea f0 6f bd 50 9d 48 be f9 78 52 be b1 23 43 be
       -0.058579363 -0.1959126 -0.2055396 -0.19056584
0001b0 dc 1b c3 bc 18 64 75 3d a4 75 df 3d fe 28 17 bd
       -0.023816995 0.05990991 0.1091111 -0.036904328
0001c0 0e 0b 98 3d b8 33 3f bd c0 f5 e5 3d 37 55 83 3d
       0.074239835 -0.046680182 0.11228514 0.06412738
0001d0 0c bb 6e 3d 52 90 f5 3d 1a c5 a7 3e ba 43 94 3e
       0.05828385 0.119904175 0.32767564 0.2895792
0001e0 b9 8d 7d 3e 88 a5 81 3e 69 84 b3 3e b0 c8 cd 3e
       0.24761094 0.25321603 0.35061958 0.40192175
0001f0 16 3f dd 3e ab 61 e2 3e c5 fc be 3e 3e bb cd 3e
       0.43212193 0.4421514 0.37302223 0.40181917
000200 dc 06 b9 3e 0b 85 3c 3e b2 8c 0b 3e 56 6f 0f be
       0.36138046 0.18410127 0.1362789 -0.14007315
000210 0a 62 04 be 2f 2b 6f be d6 3d 85 be 9d c0 b7 be
       -0.12928024 -0.23356317 -0.2602374 -0.3588914
000220 11 51 8f bd a4 b7 8c 3e 99 68 54 3e 5a eb 14 bd
       -0.06997884 0.27483857 0.20743026 -0.03635726
000230 78 5f de 3c 60 34 88 3b 41 7b 84 3d 0a b6 8e 3e
       0.027145132 0.004156634 0.06468821 0.2787326
000240 9f 34 9a 3e 74 6f 43 3e 28 2e ec 3d d9 3b 46 3e
       0.30118272 0.19085485 0.11532241 0.19358768
000250 fb ca 0f 3d d8 26 d0 3d 15 f5 3c 3e af 08 89 3e
       0.035105687 0.10163659 0.18452866 0.26764438
000260 eb d0 1d 3e be 70 93 3e 2f 7e 71 3e 8b a3 78 3e
       0.15411727 0.28796953 0.23583291 0.24281137
000270 44 bc a5 3e d4 99 87 3e 47 ad 2f 3e 83 ef 53 3d
       0.32370198 0.2648455 0.17155944 0.051742088
000280 ac b4 cd 3d 17 d8 0e bd 94 4f d6 bd fb 5c 53 be
       0.10044226 -0.034874048 -0.10464397 -0.20640938
000290 e6 a7 a9 bc 7a 30 dd 3e b7 42 6b 3e 38 37 24 3c
       -0.020709943 0.43201047 0.22974668 0.010022931
0002a0 b4 ac 34 3d 31 b4 33 bd 85 6d 0e 3d b3 4d c5 3e
       0.044110015 -0.043873016 0.034772415 0.38535842
0002b0 60 1d 79 3e 5e e9 b5 3d 81 b6 45 ba 95 41 e0 3c
       0.24327612 0.08882402 -0.0007542149 0.027375022
0002c0 e4 56 62 3d cf 77 11 3e 1f 18 38 3e 51 2e 22 3e
       0.055258647 0.1420586 0.17977951 0.15837981
0002d0 0d 6a 4d 3e ff 07 75 3e 22 f9 82 3e fe 21 62 3e
       0.20059986 0.23928832 0.25580698 0.2208328
0002e0 90 df 72 3e 9c 06 79 3e 9f 42 63 3e d9 bf d8 3d
       0.23718095 0.24318928 0.22193383 0.10583467
0002f0 b9 da ba 3d e5 50 63 3e 14 80 79 3c 78 af 39 bc
       0.09123749 0.22198828 0.01522829 -0.011333339
000300 78 8f 9d 3e d9 f3 33 3f 30 e6 bb 3e fd e5 a3 3d
       0.3077352 0.70293957 0.36699057 0.08002851
000310 6b da 96 bd df 92 e5 3d 52 b4 e7 bd d3 7c 54 3e
       -0.07365879 0.11209654 -0.1131369 0.20750742
000320 7c b2 3f 3e 15 f8 16 3e 6a 89 0a 3e c4 7b 55 3c
       0.1872043 0.14743073 0.13528982 0.013029996
000330 cc 4c 37 3d 95 68 02 3e d4 70 0c 3e 69 62 72 3e
       0.044750974 0.12735207 0.13714916 0.23670353
000340 9e d4 90 3e 29 02 53 3e 95 55 97 3e e5 81 94 3e
       0.28287214 0.20606293 0.2955748 0.29005352
000350 b1 c2 69 3e df 29 ea 3d 53 82 53 3e bb 80 b6 3d
       0.22828175 0.114337675 0.20655183 0.08911272
000360 91 29 49 3e 76 e8 32 3e 35 84 96 3e 58 66 79 3e
       0.19644763 0.1747149 0.2939774 0.24355447
000370 bc d5 bc 3e 03 41 39 3f f2 7b cd 3e f4 11 ec 3d
       0.36881816 0.72364825 0.40133625 0.11526862
000380 07 b1 28 3b 91 0b 0c 3c 4b bf 6d be 65 ba 06 3e
       0.0025740282 0.0085476795 -0.23217504 0.13157041
000390 3f 25 87 3e e1 01 56 3d 88 ed 30 3e 81 f0 02 3e
       0.26395604 0.052247886 0.17278111 0.12787057
0003a0 e3 0d d6 3d 2d 25 5f 3e 2e 9e 79 3e 89 42 3b 3e
       0.104518674 0.21791525 0.24376747 0.182871
0003b0 be 1e b3 3e 5c 77 6a 3e c3 06 84 3e 36 09 3c 3e
       0.34984392 0.22897094 0.2578641 0.18362889
0003c0 ee e5 21 3e bc aa 4e 3e b3 d3 f6 3d 06 d9 88 3e
       0.15810367 0.20182317 0.12052097 0.26728076
0003d0 15 60 3e 3e 72 d3 47 3e f6 94 da 3e 70 5e a8 3e
       0.1859134 0.19514254 0.42691773 0.3288455
0003e0 ab 2e df 3e 9f ab 55 3f 86 4f 30 3f 50 38 f7 3d
       0.43590292 0.83465 0.68871343 0.12071288
0003f0 a3 b9 73 3c ca 4a 10 be f4 55 82 be 4f 7e 09 3e
       0.014875802 -0.1409103 -0.25456202 0.13427089

sequential/dense_1/MatMul f4 [10, 5]
000000 85 a4 a5 3e aa 93 86 bf fd 0c 7e bf 76 e0 22 3f
       0.3235208 -1.0513813 -0.9923857 0.6362375
000010 56 00 19 bf 15 43 06 bd 94 6b 62 be 76 b6 10 3f
       -0.5976614 -0.03277882 -0.2211135 0.56528413
000020 37 97 e1 bf 16 08 78 3e 91 b8 21 3f 33 7e 8b bf
       -1.7624272 0.24221835 0.6317225 -1.0897888
000030 92 de 9a 3c 25 36 76 bf f2 97 e7 3d ae 4e 4e 3f
       0.018904958 -0.9617637 0.11308278 0.80588806
000040 0a 27 11 3f 41 60 0b bf 26 91 66 bf d1 f8 22 bf
       0.56700194 -0.54443747 -0.9006523 -0.63660914
000050 27 c1 c1 bf 04 02 34 3f 0e d6 75 bf 56 e2 f2 bd
       -1.513707 0.70315576 -0.96029747 -0.118595764
000060 f7 3a 47 3e 51 f2 74 3e c3 77 b8 3d 67 fb 68 bf
       0.19456087 0.23920561 0.09007218 -0.9100861
000070 ff d7 b9 3d 0a 5a a5 be 71 89 e8 be ea 65 78 bf
       0.09074401 -0.32295257 -0.4541736 -0.9703051
000080 88 39 93 bf b9 73 77 be 31 08 24 3f 40 92 c1 be
       -1.1501932 -0.24165238 0.64075 -0.37806892
000090 ca e8 bf 3e 2d 2f 04 3f 6b a5 81 be 49 08 a9 bf
       0.3748229 0.51634485 -0.25321516 -1.3205653
0000a0 15 61 3e 3e 65 15 76 bd 18 b9 d7 bd a7 06 e0 be
       0.18591721 -0.060078997 -0.10533351 -0.43755075
0000b0 69 e5 1f 3e 95 a4 15 bf db a0 2d 3f 5d 8b ff bd
       0.15614857 -0.5845426 0.6782357 -0.12477753
0000c0 f9 10 d9 bd df 20 fb be
       -0.105989404 -0.49048516
